data.pth (torch, 5418 bytes, 6 tensors)

l1.weight f4 [8, 54]
00000000: 1a06 0ebe 817b e63e 775c 203d 2c1c 8e3e
00000010: 76f0 b63e a447 0fbf 1609 12be 7c5b 683d
00000020: 3102 42be 24d3 1c3e 0e7c 0d3f 7335 47be
00000030: b370 9c3d 3548 35be f2a9 eb3e 8ee8 d0ba
00000040: 5d63 0a3f ff80 0dbf 2861 cebd d40c 403f
00000050: 72a7 843d 932f 3a3f c78f 163f 1408 d83e
00000060: a888 14be a795 e23e a7f9 18bd 3142 263f
00000070: 0788 06be 5bd9 fd3e 5301 eabe b44b ebbd
00000080: e272 1ebe 81d5 173e 6dfe 173f 8720 803d
00000090: 2da0 29be 4364 27be d80e d6bb a455 e5bc
000000a0: 13c0 9fbe 8e25 6fbe bbf5 6dbe 60e2 0a3f
000000b0: b883 f7bd 606d 273f 6377 7cbd fbb3 acbc
000000c0: d364 db3e c363 aebd 62a3 4fbd 5a69 49bc
000000d0: d33b efbd c392 a73e d4db 473f 6360 aabd
000000e0: fb4c 7dbe f216 48bd 7ab1 4bbd e534 373f
000000f0: f352 22bd 17e3 84be 7f16 02bf 1f97 84be
00000100: f968 103e b9cf 1ebe ab2a c4bd b5c6 65be
00000110: 8077 8abe acc7 36be 9c31 0e3e 7e52 113f
00000120: 280b 243e 209c e53d 49fe da3e 3a62 623d
00000130: 6a5b 893b bdf3 dd3b 9e10 ddbc bdd9 04be
00000140: 7c00 273e 1dd8 e1be e691 6a3e 19c8 65be
00000150: 2f8e 173f 8a08 debd 81b9 e53e 3935 bcbe
00000160: c1c2 eabd 9d08 0cbe 92fb 963c a132 bbbe
00000170: 0bda 94bd 3083 8abe 7d3c 213f 8dee c23d
00000180: 51e8 a3bd 4534 b9bd 19f1 90be f269 59be
00000190: 77c5 973f ed7a f13e df59 b93b 7a74 e63d
000001a0: 81f3 02be 24f9 3e3d 36d9 8ebe 39c5 a33e
000001b0: 209a 71bd 492c a0be b677 1ebe 6a00 a73e
000001c0: 4e18 5fbd edbc 323f 235f 63bd d5ad d2bd
000001d0: 17ce 29be 911e 77bb 7a86 e33d 5d4d 63be
000001e0: 3eb0 47bd 840a 41be 0d51 f4bd 2983 87bd
000001f0: d299 ed3d 5769 493f 55bf 953e bb24 a23e
00000200: 1562 94be 1e9e a23e a7f8 b63e b65d 523e
00000210: fd42 4ebe d886 aa3e 2d17 0b3e d493 43be
00000220: 3587 773d 0562 0dbe 4654 953e 1b8b c5be
00000230: 5bef 2c3d 2fa4 cabe 9b0e 51be c5da 21be
00000240: 758d 2abd 1650 2bbe 6dbc 6ebe 29f9 47be
00000250: c967 ae3e bd8c 2d3e 9992 63be b2d1 a9be
00000260: 5642 27be e471 cbbd 15c8 31bf 865e 98be
00000270: 0559 133e 024e 6a3e 4ade 74bd 5a26 883d
00000280: 61d7 8dbd ffb5 75bd 5660 4fbd 1b57 68be
00000290: 16a6 f53e 8b3a 31be 1ec4 6e3e a766 b93e
000002a0: 3c4f fdbd 18da 913e 028e 253f b5b0 e13e
000002b0: 8614 10be 58b8 61be ec66 f33e f4a4 f4bd
000002c0: a543 59be 1cc9 cebd 3d71 4ebe e256 b53e
000002d0: 54a4 053f 0c6b afbe a04e 27be 2f33 afbe
000002e0: 8d56 afbe 1ac4 06bf 703a 84be 3626 8bbe
000002f0: adea 5b3f d655 9bbe e0a1 db3e 2943 cabe
00000300: 03e5 c73e 6248 b6bd b216 0abe 3967 d23e
00000310: 6ee6 edbd ecc7 87bd 46b4 1c3f d28a e23e
00000320: 78f5 1dbd 90d9 293d b36c 6e3e 6724 0f3f
00000330: e40d dabc 6533 d7bd 60a7 ac3e 1cf2 af3d
00000340: 5ffd d8be 0343 03be 9af9 be3e e53d 533f
00000350: d650 2bbe 2b5d f13e c6ae 89bd 4e2e fb3e
00000360: 512e a2be a9f5 be3e 4fec f0be 133f b93e
00000370: c989 863e 01e7 ea3b 24a6 69bd c22d 4fbe
00000380: 9fbd 05bf 6cf0 87be cd91 c63e 0bd5 87be
00000390: 93ca a13d cf3a 86be d792 593e 0beb 6fbe
000003a0: b6d4 bf3e 4567 933d 9134 013d 3009 093f
000003b0: 6679 21be 7a48 1d3f ba55 143f 1ec1 b23e
000003c0: 5b02 53be e7c7 9f3e 8a94 d7bd 03f4 da3e
000003d0: 71a1 1cbe fe1c e53e 4671 9a3e b98b 1bbe
000003e0: f2e3 42bd 0981 d6be e65a c63e b0dc 943c
000003f0: 1b22 d3bd 7093 0ebf 855e 97bd 78d9 6bbe
-0.13869515 0.450161 0.03915068 0.27755868 0.35730332 -0.5596869 -0.14261279 0.05672787
-0.18946148 0.15314919 0.5526742 -0.19453983 0.07638683 -0.17703326 0.46028095 -0.0015938447
0.54057866 -0.5527496 -0.10077125 0.75019574 0.0647725 0.7272884 0.58813137 0.42193663
-0.14505255 0.442548 -0.037347462 0.6494475 -0.13137828 0.49579892 -0.45704135 -0.114890486
-0.15473512 0.14827539 0.593726 0.06256204 -0.16565008 -0.1634684 -0.006532531 -0.027994938
-0.31201228 -0.2335417 -0.2323827 0.5425167 -0.1208567 0.6540127 -0.061637294 -0.021081915
0.4285036 -0.08515122 -0.050692923 -0.012293184 -0.116813324 0.32729158 0.78069806 -0.083191656
-0.24736397 -0.048850007 -0.0497298 0.71565086 -0.039629888 -0.25954506 -0.50815576 -0.25896546
0.14102544 -0.15508927 -0.09578451 -0.22439082 -0.27044296 -0.17849606 0.13886112 0.567665
0.16019881 0.11211419 0.4277213 0.055269457 0.0041918056 0.0067734406 -0.026985463 -0.12973686
0.16308779 -0.44110194 0.22907218 -0.22439612 0.5920133 -0.108414724 0.4486809 -0.36759356
-0.114629276 -0.1367516 0.018430505 -0.36562064 -0.07268151 -0.27053213 0.6298292 0.09518156
-0.08003295 -0.09043173 -0.28308943 -0.21231821 1.1857136 0.47164097 0.0056564654 0.11252685
-0.12788202 0.046624318 -0.27900094 0.31986406 -0.058984876 -0.31283787 -0.15475354 0.32617503
-0.054466538 0.6981953 -0.05551065 -0.10287062 -0.16582523 -0.0037707428 0.11109634 -0.2219748
-0.048752062 -0.18851668 -0.11929522 -0.06616814 0.116016045 0.7867636 0.29247537 0.31668648
-0.2898108 0.3176126 0.35736582 0.2054356 -0.20142742 0.33306003 0.1358306 -0.1909936
0.060431678 -0.13806923 0.29165858 -0.38582692 0.042220455 -0.39578387 -0.20415728 -0.1580611
-0.04163881 -0.16729769 -0.23314066 -0.19528641 0.34063557 0.16948219 -0.22223891 -0.33167797
-0.16333899 -0.09933832 -0.69445926 -0.29759616 0.14389427 0.2288132 -0.059782304 0.0664794
-0.06925846 -0.059988018 -0.050628982 -0.22689478 0.47978276 -0.17307489 0.23317 0.3621113
-0.123686284 0.28486705 0.6466981 0.4408013 -0.14070329 -0.22042978 0.4753946 -0.11945525
-0.2121721 -0.10096952 -0.20160384 0.3541785 0.5220387 -0.34261358 -0.16338587 -0.34218737
-0.3424572 -0.5264298 -0.25825834 -0.2717759 0.8590496 -0.30338925 0.42896938 -0.39504364
0.3904191 -0.08900525 -0.1348522 0.41094378 -0.116162166 -0.06629929 0.61212575 0.44246536
-0.038564175 0.04146725 0.23283653 0.5591492 -0.026617952 -0.105078496 0.33721447 0.085911006
-0.42380807 -0.12818532 0.37299806 0.8251632 -0.16730055 0.47141394 -0.067227885 0.49058765
-0.31675962 0.372968 -0.4705529 0.36180934 0.26276997 0.007168651 -0.05704321 -0.20232299
-0.52242464 -0.26550615 0.38783112 -0.26529726 0.07899966 -0.26216742 0.21247421 -0.23429506
0.37466973 0.071974315 0.03154427 0.53529644 -0.15768966 0.61438715 0.5794331 0.34912962
-0.20606367 0.312072 -0.105263785 0.4276429 -0.1529596 0.44748682 0.30164546 -0.15190019
-0.047580667 -0.4189532 0.38741225 0.018171638 -0.103092395 -0.5569372 -0.07391075 -0.23032176

l1.bias f4 [8]
00000000: a44d 243f cf14 303f d813 413f 8439 af3e
00000010: dc33 453f ea7c 833f d75a a83e 6122 3b3f
0.6418097 0.6878175 0.75420904 0.34223568 0.77032256 1.0272496 0.32881805 0.73099333

l2.weight f4 [8, 8]
00000000: 3cb7 c03e 2f00 a23f d617 823f a4df 33bf
00000010: 96d5 e93e 1d7c 353f 801e 73bf a39b dc3b
00000020: cc3b 9c3f adf8 6cbf 7505 da3e db27 07bf
00000030: 5b04 5c3f 893a 423e f4b3 843e 8f69 103f
00000040: 8fcd a83e a5e3 0e3f 084b 773f 9983 07bf
00000050: 75a3 2e3f 5329 393f bc35 5dbf f388 57be
00000060: 5d67 c03f 5a0d f33e b2de 78be f967 52bf
00000070: 78f5 4d3f 6ceb 0abe 4a82 8c3e ccbf 093f
00000080: d1da 973f 23a7 503f dbdf 683f e7ba 603f
00000090: 9ea6 2b3f 2d5d ba3f 04a9 013f aaaa abbe
000000a0: dd1b 993f 895e 433e 8b4e 39bc 9cf4 6dbf
000000b0: 115a e23e e125 ddbe b6b8 7bbe 5e8c 8e3f
000000c0: 65be 5bbf e19c 3a3f fb1a 153e 12c2 c53d
000000d0: 5167 cfbe 3c14 303f ef6d f8be 2a3d c83e
000000e0: 37e2 403f e294 65bd 417e 85bf 643c b1bc
000000f0: fe22 96bf 48eb 4c3f fb0a 1ebd 8d0a c23f
0.37639797 1.2656306 1.0163524 -0.70263124 0.45670766 0.70892507 -0.94968414 0.0067324205
1.2205749 -0.9256695 0.42582288 -0.5279519 0.85944146 0.18967642 0.25918543 0.5641107
0.3296933 0.5581611 0.96598864 -0.5293518 0.68218166 0.7232868 -0.8641012 -0.21048336
1.5031544 0.47471124 -0.24303702 -0.821899 0.8045268 -0.13566369 0.27443153 0.53808284
1.1863652 0.8150503 0.90966576 0.8778519 0.6705111 1.4559685 0.5064852 -0.33528644
1.1961628 0.19079031 -0.01131023 -0.9295137 0.4420934 -0.43192962 -0.2458218 1.1136587
-0.85837394 0.7289563 0.14561073 0.096561566 -0.40508512 0.68780875 -0.48521373 0.39109164
0.75345176 -0.05605019 -1.0429155 -0.021635242 -1.1729429 0.8004651 -0.03858469 1.515947

l2.bias f4 [8]
00000000: bbea 93bb df3e c1be 4c74 c23c 8d28 c5be
00000010: e92e b83e b228 bf3e f2c3 4cbd bd98 363f
-0.004514066 -0.3774328 0.023737095 -0.385075 0.3597329 0.37335736 -0.049991556 0.7132681

l3.weight f4 [7, 8]
00000000: f709 34bf 08a8 60be 2ff5 5fbf c6b3 85be
00000010: c624 89bf c27a 4e3f 9ece 78be 72a0 583f
00000020: 4b06 8fbf 5fc7 5b3f 9880 9ebf 4c34 4e3f
00000030: a086 c7be 58ad e63e eefe a5bf 2176 34bf
00000040: 3e53 153f aa5b 33bf 97a9 3f3f 30cb a7bf
00000050: 58c5 4d3e a5b7 09bf 5bfd 253f ba72 a2bf
00000060: 409a a83e 947e 5c3e 50b4 fb3e fcf0 06bc
00000070: bc4d 6cbc f545 c43e b4bb a0bf 538f 15bf
00000080: 51f2 4fbf c12a a4bf 1296 1bbf a168 5bbf
00000090: 2f9d 733f b00e d8be 9b0b aebf 387c 94bf
000000a0: c8e2 6fbf 09c7 f3bd 289f 6ebf bb3c 47bf
000000b0: 6c22 463e 6f23 a0bf 9314 a13e 18dc 513f
000000c0: 6c6c ba3e cbc9 dfbf 614b 8fbc ebcc 9abd
000000d0: 7d68 6bbe 2e48 903c 8a1a 0c3f 105b e73e
-0.70327705 -0.21939099 -0.87483495 -0.2611372 -1.0714347 0.80656064 -0.24297568 0.8461982
-1.1173795 0.8585109 -1.2382994 0.8054855 -0.38969898 0.45054126 -1.2968423 -0.7049275
0.5833014 -0.70061743 0.7486815 -1.3108883 0.20094812 -0.53795844 0.64839715 -1.2691262
0.32930183 0.2153266 0.49161005 -0.008236166 -0.01442283 0.38334623 -1.2557282 -0.5842182
-0.8122912 -1.2825547 -0.60775864 -0.85706526 0.9516172 -0.42198706 -1.3597292 -1.1600409
-0.93705416 -0.11903197 -0.93211603 -0.7782704 0.19349068 -1.2510813 0.3146101 0.8197646
0.36410844 -1.7483457 -0.017491998 -0.07558616 -0.22989078 0.017612543 0.54727995 0.45186663

l3.bias f4 [7]
00000000: 80ef e33e 9e41 0dbe c24c 68be ab03 80be
00000010: 8858 ca3e beb7 973e 1500 0fbf
0.44518661 -0.13794562 -0.22685531 -0.25002798 0.3952067 0.29632372 -0.558595
